[2025-04-28 19:35:05,726][train_pansharpening.py][line:67][INFO] Namespace(batch_size=8, epoch_start=0, exp_name='LAGConvForWV2', gpu_id=2, learning_rate=0.0009, num_epochs=1000, pan_root='/PublicData/xmm/NBU_dataset0730', satellite='WV2', save_dir='/PublicData/xmm/project/LAGConv/experiment', total_iteration=200000.0)
[2025-04-28 19:35:05,727][train_pansharpening.py][line:68][INFO] model params: 0.151397 M
[2025-04-28 19:35:05,728][train_pansharpening.py][line:69][INFO] Network Structure: LACNET(
  (head_conv): Sequential(
    (0): LAConv2D(
      (attention1): Sequential(
        (0): Conv2d(9, 9, kernel_size=(3, 3), stride=(1, 1), padding=(1, 1))
        (1): ReLU(inplace=True)
        (2): Conv2d(9, 9, kernel_size=(1, 1), stride=(1, 1))
        (3): ReLU(inplace=True)
        (4): Conv2d(9, 9, kernel_size=(1, 1), stride=(1, 1))
        (5): Sigmoid()
      )
      (attention3): Sequential(
        (0): AdaptiveAvgPool2d(output_size=1)
        (1): Conv2d(9, 32, kernel_size=(1, 1), stride=(1, 1))
        (2): ReLU(inplace=True)
        (3): Conv2d(32, 32, kernel_size=(1, 1), stride=(1, 1))
      )
    )
    (1): ReLU(inplace=True)
  )
  (RB1): LACRB(
    (conv1): LAConv2D(
      (attention1): Sequential(
        (0): Conv2d(32, 9, kernel_size=(3, 3), stride=(1, 1), padding=(1, 1))
        (1): ReLU(inplace=True)
        (2): Conv2d(9, 9, kernel_size=(1, 1), stride=(1, 1))
        (3): ReLU(inplace=True)
        (4): Conv2d(9, 9, kernel_size=(1, 1), stride=(1, 1))
        (5): Sigmoid()
      )
      (attention3): Sequential(
        (0): AdaptiveAvgPool2d(output_size=1)
        (1): Conv2d(32, 32, kernel_size=(1, 1), stride=(1, 1))
        (2): ReLU(inplace=True)
        (3): Conv2d(32, 32, kernel_size=(1, 1), stride=(1, 1))
      )
    )
    (relu1): ReLU(inplace=True)
    (conv2): LAConv2D(
      (attention1): Sequential(
        (0): Conv2d(32, 9, kernel_size=(3, 3), stride=(1, 1), padding=(1, 1))
        (1): ReLU(inplace=True)
        (2): Conv2d(9, 9, kernel_size=(1, 1), stride=(1, 1))
        (3): ReLU(inplace=True)
        (4): Conv2d(9, 9, kernel_size=(1, 1), stride=(1, 1))
        (5): Sigmoid()
      )
      (attention3): Sequential(
        (0): AdaptiveAvgPool2d(output_size=1)
        (1): Conv2d(32, 32, kernel_size=(1, 1), stride=(1, 1))
        (2): ReLU(inplace=True)
        (3): Conv2d(32, 32, kernel_size=(1, 1), stride=(1, 1))
      )
    )
  )
  (RB2): LACRB(
    (conv1): LAConv2D(
      (attention1): Sequential(
        (0): Conv2d(32, 9, kernel_size=(3, 3), stride=(1, 1), padding=(1, 1))
        (1): ReLU(inplace=True)
        (2): Conv2d(9, 9, kernel_size=(1, 1), stride=(1, 1))
        (3): ReLU(inplace=True)
        (4): Conv2d(9, 9, kernel_size=(1, 1), stride=(1, 1))
        (5): Sigmoid()
      )
      (attention3): Sequential(
        (0): AdaptiveAvgPool2d(output_size=1)
        (1): Conv2d(32, 32, kernel_size=(1, 1), stride=(1, 1))
        (2): ReLU(inplace=True)
        (3): Conv2d(32, 32, kernel_size=(1, 1), stride=(1, 1))
      )
    )
    (relu1): ReLU(inplace=True)
    (conv2): LAConv2D(
      (attention1): Sequential(
        (0): Conv2d(32, 9, kernel_size=(3, 3), stride=(1, 1), padding=(1, 1))
        (1): ReLU(inplace=True)
        (2): Conv2d(9, 9, kernel_size=(1, 1), stride=(1, 1))
        (3): ReLU(inplace=True)
        (4): Conv2d(9, 9, kernel_size=(1, 1), stride=(1, 1))
        (5): Sigmoid()
      )
      (attention3): Sequential(
        (0): AdaptiveAvgPool2d(output_size=1)
        (1): Conv2d(32, 32, kernel_size=(1, 1), stride=(1, 1))
        (2): ReLU(inplace=True)
        (3): Conv2d(32, 32, kernel_size=(1, 1), stride=(1, 1))
      )
    )
  )
  (RB3): LACRB(
    (conv1): LAConv2D(
      (attention1): Sequential(
        (0): Conv2d(32, 9, kernel_size=(3, 3), stride=(1, 1), padding=(1, 1))
        (1): ReLU(inplace=True)
        (2): Conv2d(9, 9, kernel_size=(1, 1), stride=(1, 1))
        (3): ReLU(inplace=True)
        (4): Conv2d(9, 9, kernel_size=(1, 1), stride=(1, 1))
        (5): Sigmoid()
      )
      (attention3): Sequential(
        (0): AdaptiveAvgPool2d(output_size=1)
        (1): Conv2d(32, 32, kernel_size=(1, 1), stride=(1, 1))
        (2): ReLU(inplace=True)
        (3): Conv2d(32, 32, kernel_size=(1, 1), stride=(1, 1))
      )
    )
    (relu1): ReLU(inplace=True)
    (conv2): LAConv2D(
      (attention1): Sequential(
        (0): Conv2d(32, 9, kernel_size=(3, 3), stride=(1, 1), padding=(1, 1))
        (1): ReLU(inplace=True)
        (2): Conv2d(9, 9, kernel_size=(1, 1), stride=(1, 1))
        (3): ReLU(inplace=True)
        (4): Conv2d(9, 9, kernel_size=(1, 1), stride=(1, 1))
        (5): Sigmoid()
      )
      (attention3): Sequential(
        (0): AdaptiveAvgPool2d(output_size=1)
        (1): Conv2d(32, 32, kernel_size=(1, 1), stride=(1, 1))
        (2): ReLU(inplace=True)
        (3): Conv2d(32, 32, kernel_size=(1, 1), stride=(1, 1))
      )
    )
  )
  (RB4): LACRB(
    (conv1): LAConv2D(
      (attention1): Sequential(
        (0): Conv2d(32, 9, kernel_size=(3, 3), stride=(1, 1), padding=(1, 1))
        (1): ReLU(inplace=True)
        (2): Conv2d(9, 9, kernel_size=(1, 1), stride=(1, 1))
        (3): ReLU(inplace=True)
        (4): Conv2d(9, 9, kernel_size=(1, 1), stride=(1, 1))
        (5): Sigmoid()
      )
      (attention3): Sequential(
        (0): AdaptiveAvgPool2d(output_size=1)
        (1): Conv2d(32, 32, kernel_size=(1, 1), stride=(1, 1))
        (2): ReLU(inplace=True)
        (3): Conv2d(32, 32, kernel_size=(1, 1), stride=(1, 1))
      )
    )
    (relu1): ReLU(inplace=True)
    (conv2): LAConv2D(
      (attention1): Sequential(
        (0): Conv2d(32, 9, kernel_size=(3, 3), stride=(1, 1), padding=(1, 1))
        (1): ReLU(inplace=True)
        (2): Conv2d(9, 9, kernel_size=(1, 1), stride=(1, 1))
        (3): ReLU(inplace=True)
        (4): Conv2d(9, 9, kernel_size=(1, 1), stride=(1, 1))
        (5): Sigmoid()
      )
      (attention3): Sequential(
        (0): AdaptiveAvgPool2d(output_size=1)
        (1): Conv2d(32, 32, kernel_size=(1, 1), stride=(1, 1))
        (2): ReLU(inplace=True)
        (3): Conv2d(32, 32, kernel_size=(1, 1), stride=(1, 1))
      )
    )
  )
  (RB5): LACRB(
    (conv1): LAConv2D(
      (attention1): Sequential(
        (0): Conv2d(32, 9, kernel_size=(3, 3), stride=(1, 1), padding=(1, 1))
        (1): ReLU(inplace=True)
        (2): Conv2d(9, 9, kernel_size=(1, 1), stride=(1, 1))
        (3): ReLU(inplace=True)
        (4): Conv2d(9, 9, kernel_size=(1, 1), stride=(1, 1))
        (5): Sigmoid()
      )
      (attention3): Sequential(
        (0): AdaptiveAvgPool2d(output_size=1)
        (1): Conv2d(32, 32, kernel_size=(1, 1), stride=(1, 1))
        (2): ReLU(inplace=True)
        (3): Conv2d(32, 32, kernel_size=(1, 1), stride=(1, 1))
      )
    )
    (relu1): ReLU(inplace=True)
    (conv2): LAConv2D(
      (attention1): Sequential(
        (0): Conv2d(32, 9, kernel_size=(3, 3), stride=(1, 1), padding=(1, 1))
        (1): ReLU(inplace=True)
        (2): Conv2d(9, 9, kernel_size=(1, 1), stride=(1, 1))
        (3): ReLU(inplace=True)
        (4): Conv2d(9, 9, kernel_size=(1, 1), stride=(1, 1))
        (5): Sigmoid()
      )
      (attention3): Sequential(
        (0): AdaptiveAvgPool2d(output_size=1)
        (1): Conv2d(32, 32, kernel_size=(1, 1), stride=(1, 1))
        (2): ReLU(inplace=True)
        (3): Conv2d(32, 32, kernel_size=(1, 1), stride=(1, 1))
      )
    )
  )
  (tail_conv): LAConv2D(
    (attention1): Sequential(
      (0): Conv2d(32, 9, kernel_size=(3, 3), stride=(1, 1), padding=(1, 1))
      (1): ReLU(inplace=True)
      (2): Conv2d(9, 9, kernel_size=(1, 1), stride=(1, 1))
      (3): ReLU(inplace=True)
      (4): Conv2d(9, 9, kernel_size=(1, 1), stride=(1, 1))
      (5): Sigmoid()
    )
    (attention3): Sequential(
      (0): AdaptiveAvgPool2d(output_size=1)
      (1): Conv2d(32, 8, kernel_size=(1, 1), stride=(1, 1))
      (2): ReLU(inplace=True)
      (3): Conv2d(8, 8, kernel_size=(1, 1), stride=(1, 1))
    )
  )
)
[2025-04-28 19:36:05,130][train_pansharpening.py][line:131][INFO] Epoch:[0]	 PSNR = 33.5417	 BEST_PSNR = 33.5417	 BEST_epoch = 0
[2025-04-28 19:45:23,637][train_pansharpening.py][line:131][INFO] Epoch:[10]	 PSNR = 39.2402	 BEST_PSNR = 39.2402	 BEST_epoch = 10
[2025-04-28 19:54:39,893][train_pansharpening.py][line:131][INFO] Epoch:[20]	 PSNR = 39.6615	 BEST_PSNR = 39.6615	 BEST_epoch = 20
…
